assets/model/ecg_model.tflite (tflite, 114968 bytes, 4 tensors)

arith.constant f4 [4, 64]
00000000: 6e14 82bd 59ac 25be e642 913e f1cc 183c
00000010: 7dd2 afbd 05a5 82bd faa7 833e 6f99 93be
00000020: 8256 6abc d8f4 473d 115a 8a3e 43e3 823d
00000030: f384 9cbd 449c 243e 25fb 16be ac7f acbb
00000040: 2270 0c3e a27f 003e 2640 003d 53ba 80be
00000050: 436e ee3d 5432 22be 8f6b d53d 564a d23d
00000060: 21cf 52be dd81 fd3d 3f81 183e 573f 28bd
00000070: 7bc6 913e 3f7e 93bd 15f0 56bd 279b 2e3e
00000080: a024 63be fb74 543e fe16 8dbe 8f4e 4ebe
00000090: ad94 66bd b6f6 3f3d 7a3b 783e af3a 16be
000000a0: f42c 423e c43a 3cbe c521 6fbd 5857 523e
000000b0: 00d5 7bbd dda0 303e 0e5e fabd 6a7c 9abd
000000c0: 5ab6 86be 55d5 87be cb19 243e 6886 593e
000000d0: 5065 febc 148b 253e 8f6f 61be 66bd 7dbd
000000e0: 01c8 ce3d fa2d 5c3e 2711 5a3e 75c2 733d
000000f0: dd27 e8bd 3384 f63b fe42 51be ef47 b63d
00000100: 77e4 3bbe c087 113e d25d 543e 8e29 933d
00000110: 0efc 5d3e 7106 46be 619f 303e 1aad ff3d
00000120: 8b98 94bc 7bc4 e8bd f9c0 73be 682d 1d3e
00000130: 03f0 cebd 0e90 113d 918b c5bd ae12 11bc
00000140: 4171 21be de99 0d3e d3c5 6bba cbb0 c43d
00000150: eca0 7abc ef38 3b3e ce26 cd3c be55 433e
00000160: 1f19 8a3e 649b a5bd f481 f4bd 3432 973e
00000170: 9d51 53be 80c4 1e3e 3e2d 803e 0e36 0e3e
00000180: 1c8e 20be 0cda 1ebe 4348 6b3e c4ba 243e
00000190: c7ed 3cbe 7386 1c3e 2f5f 3b3e cccc fd3d
000001a0: 6d1f 38be 3fca 5ebe 76df 913e b814 073e
000001b0: 3955 7cbe b1c4 853c 3e0d d73d c49d 603e
000001c0: b722 3fbe ec9f a6bc 5549 6d3e 7807 b63d
000001d0: 3628 55be 6a7f 223e 26c7 5dbe 706e c4bd
000001e0: 8d73 88be 6b39 bbbd 0ab4 f93c 1837 83be
000001f0: 10f7 08be 2ada 8d3e ee33 72be 2df7 603e
00000200: c88e 583e 3409 963e 48a8 013d fd72 96be
00000210: 016b 94bb 54f2 2e3e 89b7 563e ae50 d5bd
00000220: 9a8c 83bd c523 bf3d e77d b3bd 8041 1c3b
00000230: 3c28 92be 5c5b 7fbe 3d47 463e ff82 903e
00000240: f9fd 4a3e 87df a73d c4c4 8c3e 48a8 1abe
00000250: 09ff 57be c5f1 60bd f028 5f3c 518d 38bd
00000260: c7fb 093e aaaf cb3d b510 cfbd e88d 363e
00000270: ff62 3cbe f001 313d 220c 6ebe ba89 883d
00000280: d8cd ae3d 5aee b1bc 1b04 613e 3224 1e3d
00000290: ef90 a0bd c45e 78be d4ae 7cbe 9edc 493e
000002a0: 1723 283e 44eb 2bbe 6492 87be 4e96 903e
000002b0: 0c7f 073e ea1d 683d 8be3 223e 8715 88be
000002c0: 959d a03d 215a 483e b49e d1bd 9a77 913d
000002d0: 42fe 22be 3372 2d3e a8a1 ff3c 8c17 84bd
000002e0: 84d5 843e f491 38be a329 a63d e955 4e3e
000002f0: a52d 34be 9519 7a3d 956c 5d3e 6001 d03d
00000300: dbb7 633b 441d 713e ff55 82be 7684 52bd
00000310: 9ee1 4a3e a014 4d3c db92 8dbe 17c9 303e
00000320: e666 92be a596 943e 3048 ba3d 074f 813d
00000330: abea 863d cb88 36bd 4931 673d 86f3 963d
00000340: 7171 66be 33a7 1cbc 5a93 b03d 73e3 c13d
00000350: b223 59be b12f 32bc a86c 373e 9b58 0cbe
00000360: 37b2 8cbe 231c 143e 4de0 bfbd a73b 4dbe
00000370: b1b2 dc3d 356c 94bd 44af 2fbe 6b48 8d3c
00000380: 3165 533e d0bc 1c3d 29bc 83be 13d0 adbd
00000390: 8cb5 423d c832 9ebd 24a2 6a3e 92e6 65be
000003a0: fefc 48be 795f 18be bc74 9cbd cfd4 2f3e
000003b0: 7290 bb3d 83db 1b3e 4d8f 8cbe 5d61 25be
000003c0: d4ca b4bd 3443 a9bd c2d5 35be 982e 543c
000003d0: 443a 54be 3d4f 92be 7a27 07be becf f4bd
000003e0: 0872 91be 63d1 953e e932 d2bc 9ccf 023e
000003f0: 7929 0d3e 9619 da3b 5d28 c6bd 2ab0 7a3e
-0.06351553 -0.16179027 0.28371352 0.009326206 -0.08585069 -0.06379131 0.25714093 -0.28827998
-0.014302852 0.048817486 0.2702184 0.06391003 -0.076425456 0.16075236 -0.14744242 -0.005264243
0.1371465 0.12548688 0.031311177 -0.25142154 0.116421245 -0.15839511 0.10420906 0.10268085
-0.20586826 0.12378285 0.14893053 -0.04107603 0.2847174 -0.07201814 -0.052475054 0.17051373
-0.2218194 0.2074775 -0.27556604 -0.20147155 -0.056294132 0.04686614 0.24241439 -0.14670824
0.18962461 -0.18381792 -0.058381815 0.20541131 -0.06148243 0.17248864 -0.12224971 -0.07543261
-0.26310998 -0.26529947 0.16025464 0.21242678 -0.031054169 0.16166335 -0.22015212 -0.061948203
0.100967415 0.21501914 0.21295606 0.05951162 -0.11335728 0.0075230836 -0.20435712 0.08900439
-0.18348871 0.14211941 0.20738915 0.0718566 0.21678182 -0.19338395 0.17248298 0.124841884
-0.018139144 -0.11365601 -0.23804082 0.15349352 -0.10104372 0.035537772 -0.09645761 -0.008854551
-0.15765859 0.13828227 -0.00089940167 0.09604033 -0.015297156 0.18283437 0.025042918 0.19075677
0.2697229 -0.08086279 -0.11938849 0.2953049 -0.20636602 0.15504646 0.25034517 0.13887808
-0.1567921 -0.15512866 0.22976784 0.1608687 -0.1845008 0.15285663 0.18298028 0.123925775
-0.17980738 -0.21756838 0.284908 0.13191497 -0.24641885 0.016329141 0.105005726 0.21935183
-0.18665586 -0.020339929 0.23172505 0.08888143 -0.2081612 0.15868917 -0.21658 -0.09591377
-0.26650658 -0.09141811 0.030481357 -0.2562797 -0.13375497 0.27705508 -0.23652622 0.2196929
0.21148217 0.29303896 0.031654626 -0.29384604 -0.0045293574 0.17084628 0.2096845 -0.10415779
-0.06423302 0.09332994 -0.08764248 0.0023842752 -0.2854632 -0.24937195 0.19363113 0.28224942
0.19823445 0.08196931 0.2749387 -0.15103257 -0.21093382 -0.05491807 0.0136206 -0.045056645
0.13474952 0.09945615 -0.101106085 0.1782757 -0.18397139 0.04321474 -0.23246816 0.06666894
0.08535355 -0.0217201 0.21974222 0.038608737 -0.07840144 -0.242549 -0.24676067 0.19713065
0.16419636 -0.16788965 -0.26478875 0.28239673 0.13232058 0.056669153 0.15907113 -0.26578924
0.078425564 0.19565631 -0.10235348 0.0710289 -0.15917304 0.16938095 0.031205013 -0.06449804
0.2594415 -0.18024427 0.0811341 0.2014996 -0.17595537 0.061059553 0.21623452 0.10156512
0.0034747038 0.2354632 -0.25456235 -0.051395856 0.19812629 0.012517124 -0.27651104 0.1726421
-0.2859413 0.29021183 0.090958 0.063139014 0.06587728 -0.04456405 0.056443486 0.07370667
-0.22504212 -0.009561348 0.08621855 0.094672106 -0.21205023 -0.010875628 0.17912543 -0.13705675
-0.27479717 0.14463858 -0.09368954 -0.20042287 0.1077627 -0.07247201 -0.17156702 0.017246446
0.2064407 0.038266003 -0.25729492 -0.08486953 0.047536418 -0.077245295 0.22913414 -0.22451237
-0.19627759 -0.1488017 -0.07639453 0.17171024 0.0915841 0.15220456 -0.2745308 -0.16150422
-0.08827749 -0.08264771 -0.17757323 0.012950562 -0.20725352 -0.2857608 -0.13198653 -0.11953686
-0.2840731 0.29261312 -0.025659041 0.12774509 0.13785352 0.006655882 -0.096756674 0.24481264

tfl.pseudo_qconst i1 [64, 128]
00000000: 1689 7111 f3d0 2144 cefb a574 179b 6bb0
00000010: 2e6c 295e d76e 77bb 75c6 042d 32ad 42fa
00000020: 0349 6c51 fabe b0e5 0c0c 6736 c82f a790
00000030: 04d0 600d 68cb 5e13 1b3c 22fa 1401 ff84
00000040: 8202 2946 58da 623c a0b6 631c 05ec 6c79
00000050: 9e4f 1366 c5d0 0085 89ac 7fc7 5114 2970
00000060: cba7 9917 78d6 8ed3 100c 3b1b e8d9 e79f
00000070: 0287 5a4c 435a 5269 1cd6 aac4 8c3f ace0
00000080: 69ec 2ff4 8737 fe87 ffe8 b9f7 95bc 3332
00000090: bd97 8502 058c 3e5b ad58 7ab3 12d8 5019
000000a0: eb48 ed82 1434 74f6 9abf 6fea 45c6 d303
000000b0: a168 1bff b33d 46d4 e54e 949b bf9c 54a9
000000c0: 344e 1d86 9121 668e 0fd3 133e 262f aa4f
000000d0: 7fc9 181d f99e edf3 639d dade 7022 c412
000000e0: 1d9e 6fd9 a19d df9f 5621 cc3a a647 431d
000000f0: c4ce 52a2 8438 f397 a624 c7c9 1a82 42b4
22 -119 113 17 -13 -48 33 68
-50 -5 -91 116 23 -101 107 -80
46 108 41 94 -41 110 119 -69
117 -58 4 45 50 -83 66 -6
3 73 108 81 -6 -66 -80 -27
12 12 103 54 -56 47 -89 -112
4 -48 96 13 104 -53 94 19
27 60 34 -6 20 1 -1 -124
-126 2 41 70 88 -38 98 60
-96 -74 99 28 5 -20 108 121
-98 79 19 102 -59 -48 0 -123
-119 -84 127 -57 81 20 41 112
-53 -89 -103 23 120 -42 -114 -45
16 12 59 27 -24 -39 -25 -97
2 -121 90 76 67 90 82 105
28 -42 -86 -60 -116 63 -84 -32
105 -20 47 -12 -121 55 -2 -121
-1 -24 -71 -9 -107 -68 51 50
-67 -105 -123 2 5 -116 62 91
-83 88 122 -77 18 -40 80 25
-21 72 -19 -126 20 52 116 -10
-102 -65 111 -22 69 -58 -45 3
-95 104 27 -1 -77 61 70 -44
-27 78 -108 -101 -65 -100 84 -87
52 78 29 -122 -111 33 102 -114
15 -45 19 62 38 47 -86 79
127 -55 24 29 -7 -98 -19 -13
99 -99 -38 -34 112 34 -60 18
29 -98 111 -39 -95 -99 -33 -97
86 33 -52 58 -90 71 67 29
-60 -50 82 -94 -124 56 -13 -105
-90 36 -57 -55 26 -126 66 -76

tfl.pseudo_qconst1 i1 [128, 256]
00000000: 1315 e285 6b38 4838 99a1 63f2 f368 4879
00000010: 9708 3e0d 74c4 61c1 339d 7b0d 09d8 dc0f
00000020: 1ed0 1181 77e8 2790 4c91 da10 0cb9 aa51
00000030: 4e34 4aab a1d5 b77e b137 30c2 180d 5291
00000040: d21e 5eed c4e4 9a65 0142 945a 0754 61dc
00000050: 2d8e 3a89 e176 5e76 888d d7c2 e91c 4ae9
00000060: d5da 3899 e746 0145 74ab d7eb d3af 7d8a
00000070: b8bf 8931 4ed3 6d5a a99c 2b67 610d 84cb
00000080: 50f1 1397 831d 59fd 29f7 aff6 462e 8be7
00000090: 7dda 0370 7ecf 824e 8c6d 485f cc2c fa22
000000a0: a9a5 408f 0a31 1281 e292 9cf3 fb4d c902
000000b0: 3c68 ac95 733e 89db 8ee7 f86f c620 9229
000000c0: d285 7037 fb86 9049 2f38 5991 e3a3 0e96
000000d0: 15b0 725c 85b9 7e94 a819 86d5 50b1 f8af
000000e0: 6f18 40ab 1c9a 5dab 560b 73c1 7735 b345
000000f0: e2ed fa1b 8da5 02dc 8e2f 886e e6ba 1e54
19 21 -30 -123 107 56 72 56
-103 -95 99 -14 -13 104 72 121
-105 8 62 13 116 -60 97 -63
51 -99 123 13 9 -40 -36 15
30 -48 17 -127 119 -24 39 -112
76 -111 -38 16 12 -71 -86 81
78 52 74 -85 -95 -43 -73 126
-79 55 48 -62 24 13 82 -111
-46 30 94 -19 -60 -28 -102 101
1 66 -108 90 7 84 97 -36
45 -114 58 -119 -31 118 94 118
-120 -115 -41 -62 -23 28 74 -23
-43 -38 56 -103 -25 70 1 69
116 -85 -41 -21 -45 -81 125 -118
-72 -65 -119 49 78 -45 109 90
-87 -100 43 103 97 13 -124 -53
80 -15 19 -105 -125 29 89 -3
41 -9 -81 -10 70 46 -117 -25
125 -38 3 112 126 -49 -126 78
-116 109 72 95 -52 44 -6 34
-87 -91 64 -113 10 49 18 -127
-30 -110 -100 -13 -5 77 -55 2
60 104 -84 -107 115 62 -119 -37
-114 -25 -8 111 -58 32 -110 41
-46 -123 112 55 -5 -122 -112 73
47 56 89 -111 -29 -93 14 -106
21 -80 114 92 -123 -71 126 -108
-88 25 -122 -43 80 -79 -8 -81
111 24 64 -85 28 -102 93 -85
86 11 115 -63 119 53 -77 69
-30 -19 -6 27 -115 -91 2 -36
-114 47 -120 110 -26 -70 30 84

sequential_9_1/dense_38_1/MatMul i1 [256, 255]
00000000: 8929 33a1 8ad4 6951 56bb 0acb a2ea 0fd0
00000010: 1d1e 57ed 227a 8f79 1c37 0630 da81 0311
00000020: 4534 b989 9a9c 334a da3a afef 56b1 8eeb
00000030: f463 afcd b29e a2e6 a5fc 7785 1c2b 0af6
00000040: 9223 c528 6c3e af2a 46a0 7559 c6e5 de2f
00000050: df5c c959 4fb8 85b9 2df6 cfff bd3b 875b
00000060: 203c b6d8 8471 26cc 61a3 1075 5b8a 4822
00000070: b3dd cb19 ef0f fae7 d0ba 24c4 5d06 a356
00000080: d0b9 688f 402b 68de 7498 208b 3054 dad6
00000090: 437f a126 0553 4438 25e7 9f56 0fd7 cdf8
000000a0: 43bc e479 fb95 c5ba 9f0e 547a caec 1f54
000000b0: ec61 2259 08eb 41df 9b57 373b 7b0d 24ea
000000c0: b8aa 35b9 4bc5 1d67 d3ff 0d0f eded f60f
000000d0: 3736 6f7b aed0 27eb e250 5153 df36 d51b
000000e0: 9abd 3ec6 d154 30da 6b2b f394 32a9 84a6
000000f0: 3b90 b825 b17c d621 759e 734a 7641 1e7e
-119 41 51 -95 -118 -44 105 81
86 -69 10 -53 -94 -22 15 -48
29 30 87 -19 34 122 -113 121
28 55 6 48 -38 -127 3 17
69 52 -71 -119 -102 -100 51 74
-38 58 -81 -17 86 -79 -114 -21
-12 99 -81 -51 -78 -98 -94 -26
-91 -4 119 -123 28 43 10 -10
-110 35 -59 40 108 62 -81 42
70 -96 117 89 -58 -27 -34 47
-33 92 -55 89 79 -72 -123 -71
45 -10 -49 -1 -67 59 -121 91
32 60 -74 -40 -124 113 38 -52
97 -93 16 117 91 -118 72 34
-77 -35 -53 25 -17 15 -6 -25
-48 -70 36 -60 93 6 -93 86
-48 -71 104 -113 64 43 104 -34
116 -104 32 -117 48 84 -38 -42
67 127 -95 38 5 83 68 56
37 -25 -97 86 15 -41 -51 -8
67 -68 -28 121 -5 -107 -59 -70
-97 14 84 122 -54 -20 31 84
-20 97 34 89 8 -21 65 -33
-101 87 55 59 123 13 36 -22
-72 -86 53 -71 75 -59 29 103
-45 -1 13 15 -19 -19 -10 15
55 54 111 123 -82 -48 39 -21
-30 80 81 83 -33 54 -43 27
-102 -67 62 -58 -47 84 48 -38
107 43 -13 -108 50 -87 -124 -90
59 -112 -72 37 -79 124 -42 33
117 -98 115 74 118 65 30 126
